…
,\n","    Conv2D(256, (3, 3), activation='relu'),\n","    MaxPooling2D(2, 2),\n","    Flatten(),\n","    Dense(512, activation='relu'),\n","    Dense(512, activation='relu'),\n","    Dense(5, activation='softmax')\n","])\n","model.summary()\n","\n"],"execution_count":null,"outputs":[{"output_type":"stream","name":"stdout","text":["Model: \"sequential_7\"\n","_________________________________________________________________\n","Layer (type)                 Output Shape              Param #   \n","=================================================================\n","conv2d_21 (Conv2D)           (None, 398, 398, 16)      448       \n","_________________________________________________________________\n","max_pooling2d_21 (MaxPooling (None, 199, 199, 16)      0         \n","_________________________________________________________________\n","conv2d_22 (Conv2D)           (None, 197, 197, 32)      4640      \n","_________________________________________________________________\n","max_pooling2d_22 (MaxPooling (None, 98, 98, 32)        0         \n","_________________________________________________________________\n","conv2d_23 (Conv2D)           (None, 96, 96, 64)        18496     \n","_________________________________________________________________\n","conv2d_24 (Conv2D)           (None, 94, 94, 64)        36928     \n","_________________________________________________________________\n","max_pooling2d_23 (MaxPooling (None, 47, 47, 64)        0         \n","_________________________________________________________________\n","conv2d_25 (Conv2D)           (None, 45, 45, 128)       73856     \n","_________________________________________________________________\n","conv2d_26 (Conv2D)           (None, 43, 43, 128)       147584    \n","_________________________________________________________________\n","max_pooling2d_24 (MaxPooling (None, 21, 21, 128)       0         \n","_________________________________________________________________\n","conv2d_27 (Conv2D)           (None, 19, 19, 256)       295168    \n","_________________________________________________________________\n","conv2d_28 (Conv2D)           (None, 17, 17, 256)       590080    \n","_________________________________________________________________\n","conv2d_29 (Conv2D)           (None, 15, 15, 256)       590080    \n","_________________________________________________________________\n","max_pooling2d_25 (MaxPooling (None, 7, 7, 256)         0         \n","_________________________________________________________________\n","flatten_7 (Flatten)          (None, 12544)             0         \n","_________________________________________________________________\n","dense_28 (Dense)             (None, 512)               6423040   \n","_________________________________________________________________\n","dense_29 (Dense)             (None, 512)               262656    \n","_________________________________________________________________\n","dense_30 (Dense)             (None, 5)                 2565      \n","=================================================================\n","Total params: 8,445,541\n","Trainable params: 8,445,541\n","Non-trainable params: 0\n","_________________________________________________________________\n"]}]},{"cell_type":"code","metadata":{"id":"bqPA54PGLxSX","colab":{"base_uri":"https://localhost:8080/"},"executionInfo":{"status":"ok","timestamp":1636139238290,"u
…
